…
2023-06-02 16:36:50,180 - root - INFO - n_entities:        9099
2023-06-02 16:36:50,180 - root - INFO - n_users_entities:  13408
2023-06-02 16:36:50,181 - root - INFO - n_relations:       30
2023-06-02 16:36:50,181 - root - INFO - n_h_list:          154572
2023-06-02 16:36:50,181 - root - INFO - n_t_list:          154572
2023-06-02 16:36:50,181 - root - INFO - n_r_list:          154572
2023-06-02 16:36:50,181 - root - INFO - n_cf_train:        14841
2023-06-02 16:36:50,181 - root - INFO - n_cf_test:         6203
2023-06-02 16:36:50,181 - root - INFO - n_kg_train:        154572
2023-06-02 16:36:50,426 - root - INFO - KGAT(
  (entity_user_embed): Embedding(13408, 128)
  (relation_embed): Embedding(30, 128)
  (aggregator_layers): ModuleList(
    (0): Aggregator(
      (message_dropout): Dropout(p=0.1, inplace=False)
      (activation): LeakyReLU(negative_slope=0.01)
      (linear1): Linear(in_features=128, out_features=128, bias=True)
      (linear2): Linear(in_features=128, out_features=128, bias=True)
    )
    (1): Aggregator(
      (message_dropout): Dropout(p=0.1, inplace=False)
      (activation): LeakyReLU(negative_slope=0.01)
      (linear1): Linear(in_features=128, out_features=64, bias=True)
      (linear2): Linear(in_features=128, out_features=64, bias=True)
    )
    (2): Aggregator(
      (message_dropout): Dropout(p=0.1, inplace=False)
      (activation): LeakyReLU(negative_slope=0.01)
      (linear1): Linear(in_features=64, out_features=32, bias=True)
      (linear2): Linear(in_features=64, out_features=32, bias=True)
    )
  )
  (w): Sequential(
    (0): Linear(in_features=240, out_features=176, bias=True)
    (1): ReLU()
    (2): Linear(in_features=176, out_features=176, bias=True)
  )
)
